model_uxt.pt (torch, 4626 bytes, 11 tensors)

hidden_layer1.weight f4 [5, 2]
0	0xc002c6f0	-2.0433922
1	0xbfb03158	-1.3765059
2	0x3fabea8e	1.3430955
3	0x3f538c09	0.8263555
4	0xc0624da7	-3.5359895
5	0xc01cc2dd	-2.4493935
6	0xc07b42aa	-3.9259439
7	0xc0202f5c	-2.5028906
8	0xc0235e10	-2.5526161
9	0xbfe77630	-1.8082943

hidden_layer1.bias f4 [5]
0	0x3fb40f23	1.4067119
1	0x3f10fd5d	0.566366
2	0xbf87ed8b	-1.0619367
3	0xbfb43178	-1.4077597
4	0xbf644176	-0.89162385

hidden_layer2.weight f4 [5, 5]
0	0x3faaf18a	1.3354962
1	0xc0143471	-2.3157008
2	0x4018ecaa	2.3894448
3	0x3facabf8	1.3489981
4	0x3f9c8a15	1.2229639
5	0x3fea539f	1.8306769
6	0xbfd99cee	-1.7001016
7	0x3f27a4ef	0.65486044
8	0x3f018aec	0.506026
9	0x3f035b88	0.5131154
10	0xc03763bd	-2.8654625
11	0x3fac9fa0	1.3486214
12	0xbede37bb	-0.43401894
13	0x3eb5e6ee	0.35527748
14	0xbbe211d3	-0.0068990975
15	0x403b6f3b	2.928664
16	0xbf406b60	-0.7516384
17	0x3dd0027d	0.101567246
18	0xbecfa7f4	-0.40557826
19	0x3f4a2874	0.78967977
20	0x3f9472c8	1.1597528
21	0xc065549f	-3.5832899
22	0x4081cf23	4.0565352
23	0x406d0d4f	3.7039373
24	0x3febbd70	1.8417187

hidden_layer2.bias f4 [5]
0	0xc023456b	-2.551112
1	0xbff6259e	-1.923023
2	0x3f4f1426	0.8089012
3	0xbf588e8f	-0.8459253
4	0xc043cb37	-3.0592782

hidden_layer3.weight f4 [5, 5]
0	0x3fb1e4b3	1.3897918
1	0x3fcbbe70	1.5917492
2	0xc0355409	-2.833254
3	0x3ede7f18	0.4345634
4	0x404adf18	3.1698666
5	0x403dc545	2.9651654
6	0x3fec0b91	1.844103
7	0xc05ab842	-3.4174962
8	0x3e96f71c	0.29485404
9	0x40a29467	5.0806155
10	0x3ef61a76	0.48067063
11	0x3f866969	1.0500919
12	0xc01b31f0	-2.424923
13	0x3f94989d	1.1609074
14	0x3f263ee8	0.6493974
15	0x3f842af2	1.0325606
16	0x3faa2b7a	1.3294518
17	0xc0250125	-2.5781949
18	0x3f4f76da	0.8104073
19	0x3fc2aa49	1.5208217
20	0x3f45dffc	0.772949
21	0x3f3c03f5	0.7344354
22	0xc016569b	-2.349036
23	0x3fcdb764	1.6071591
24	0x3e26b02f	0.16278146

hidden_layer3.bias f4 [5]
0	0xc003ea56	-2.0611777
1	0xc01b62ba	-2.4279008
2	0xbf8444aa	-1.0333455
3	0xbfdefcea	-1.7420933
4	0xbf407ea7	-0.75193256

hidden_layer4.weight f4 [5, 5]
0	0x3fe57f5d	1.7929493
1	0x3ff49a38	1.9109564
2	0x3fadafa5	1.3569227
3	0x3fa03e9c	1.2519107
4	0x3fb6cd37	1.4281377
5	0x401ed3d6	2.4816794
6	0x4031ed00	2.7800903
7	0x3f9f7df1	1.2460309
8	0x3fa4a30b	1.2862257
9	0x3f7066f4	0.93907094
10	0xbfe4626c	-1.7842536
11	0xbff6c845	-1.9279867
12	0xbfa153a2	-1.2603648
13	0xbfd81a14	-1.6882958
14	0xbf9ee990	-1.2415028
15	0x3fa96a16	1.32355
16	0x3fb37e49	1.4022914
17	0x3fb7dbac	1.4363914
18	0x3fcea2bb	1.6143411
19	0x3fc66362	1.5499079
20	0x4001a0f3	2.0254486
21	0x4028b3e4	2.6359797
22	0x3f8a6c13	1.0814232
23	0x40061704	2.0951548
24	0x3f593424	0.84845185

hidden_layer4.bias f4 [5]
0	0xc001c259	-2.027487
1	0xc0165d67	-2.3494508
2	0x40064053	2.097676
3	0xbfd0d562	-1.6315119
4	0xc013495c	-2.3013525

hidden_layer5.weight f4 [5, 5]
0	0xbfabfa53	-1.3435768
1	0xbfee10db	-1.8598894
2	0x40138741	2.3051302
3	0xbfb265ab	-1.3937277
4	0xc00361c9	-2.0528433
5	0x400c2755	2.1899006
6	0x3fe312dc	1.774013
7	0xc02698bb	-2.603072
8	0x3fa8cc6d	1.3187386
9	0x3fda3633	1.704779
10	0xbfb91628	-1.4459887
11	0xbff2df7e	-1.8974454
12	0x400538d4	2.0815935
13	0xbfa5625e	-1.2920644
14	0xbfe5caf4	-1.7952561
15	0x3f10b158	0.56520605
16	0x3f62283d	0.8834265
17	0x3f627c08	0.88470507
18	0xbc7d0d6c	-0.015445095
19	0x3f50fa78	0.81632185
20	0xbfe99f4d	-1.825174
21	0xbff61be1	-1.9227258
22	0x40243d1c	2.5662298
23	0xbfa4d37e	-1.2877042
24	0xc00055c7	-2.0052354

hidden_layer5.bias f4 [5]
0	0x3e904697	0.28178856
1	0xbef09d9e	-0.46995252
2	0x3e2c8fb6	0.16851696
3	0x3c5c080f	0.013429656
4	0x3efc09a5	0.49226108

output_layer.weight f4 [1, 5]
0	0xbfb94937	-1.4475468
1	0x40969b9c	4.7064953
2	0xbf8cad13	-1.0990318
3	0x3ebe3691	0.37151006
4	0xc00243fd	-2.0353997
