model_uxt.pt (torch, 4626 bytes, 11 tensors)

hidden_layer1.weight f4 [5, 2]
00000000: adb0 843f 375a 4d3f 34a0 afbf 65b4 6abf
00000010: fec9 b5bf 0e94 7dbf 2c2b cc3f d474 6c3f
00000020: dad4 7abf 9901 3ebf
1.0366417 0.8021578 -1.3720765 -0.9168151 -1.4202268 -0.9905404 1.5950675 0.92365766
-0.97981036 -0.7422119

hidden_layer1.bias f4 [5]
00000000: 2c76 883e 00db 163f 6353 463f dae0 2ebf
00000010: fea8 98bd
0.26652658 0.5892792 0.7747099 -0.68311846 -0.07454108

hidden_layer2.weight f4 [5, 5]
00000000: 90cc 0740 6b5e a1bf d39d 49bf 934f 1740
00000010: 5e44 43bf 0a22 90bf 568f 963f dd22 803f
00000020: e48e fdbf 9e27 253e 901c b9bf d26f 8f3f
00000030: fe49 8b3f 61e2 c9bf 309e 493e b090 9a3f
00000040: 2b92 18c0 aead 21c0 bc9c 0540 7f84 abbf
00000050: 944c 913f f633 a3bf 7d4f 57bf 3b7c a43f
00000060: 8f56 fabe
2.1218605 -1.2606939 -0.78756446 2.3642318 -0.76276195 -1.1260388 1.1762493 1.001064
-1.9809232 0.16128394 -1.4461842 1.1206 1.0881956 -1.577221 0.1968925 1.2075405
-2.3839214 -2.5262256 2.0876913 -1.339981 1.1351495 -1.2750232 -0.84105664 1.2850412
-0.48894164

hidden_layer2.bias f4 [5]
00000000: e029 8c3f d069 9bbf 966f 9fbf 16ca 95bd
00000010: b509 233f
1.0950279 -1.2141666 -1.2455928 -0.073139355 0.63686687

hidden_layer3.weight f4 [5, 5]
00000000: c8a7 03c0 df85 b83f 4141 a93f 37d7 9abf
00000010: f0da c0bf 61e0 9cbf 13ab a23f c85e 8e3f
00000020: 16e8 b3bf 6595 59bf f70c adbf 9954 533f
00000030: d120 343f d67f a8bf cb6d 87bf 45d8 cc3e
00000040: 0aba b7bf 623d 73bf aecc f03f 5eaf fe3e
00000050: 09ce f2bf 2597 de3f 5923 0240 e352 a0bf
00000060: ea05 fabf
-2.0571156 1.4415854 1.3223039 -1.2096928 -1.5066814 -1.2255975 1.2708458 1.1122675
-1.4055202 -0.8499358 -1.3519582 0.8255096 0.70362574 -1.3164012 -1.0580381 0.4000875
-1.435365 -0.9501554 1.8812463 0.4974317 -1.8969127 1.7389876 2.0334074 -1.2525295
-1.9533055

hidden_layer3.bias f4 [5]
00000000: 9f78 dbbd 8306 0abf b724 ad3e ec1d 4ebe
00000010: 8d9f cbbe
-0.10716366 -0.53916186 0.33817074 -0.20128602 -0.39770165

hidden_layer4.weight f4 [5, 5]
00000000: e2db 993f 2a0a 723f 65ce e83f 2a5a c9bf
00000010: 4349 8f3f 407d 983f 3ae1 a13f caf9 d53f
00000020: 4552 a8bf eecf 803f a99f dbbf c1bf b9bf
00000030: ae57 e3bf 7d45 b93f f3b7 fabf b883 ea3f
00000040: 57db bf3f 4a76 8e3f 99b0 bdbf dd92 0740
00000050: 278d bf3f 7a00 b73f 5520 9c3f a6b0 bdbf
00000060: eaaf ef3f
1.2020228 0.9454676 1.8187987 -1.5730641 1.1194233 1.1913223 1.2646859 1.6716855
-1.3150107 1.0063455 -1.71581 -1.4511644 -1.7761133 1.4474331 -1.9587387 1.8321447
1.4988812 1.1129849 -1.4819518 2.1183388 1.4964951 1.429702 1.2197367 -1.4819534
1.872556

hidden_layer4.bias f4 [5]
00000000: cf71 6ebf ed94 6ebf 2614 ce3f 51c3 b1bf
00000010: 9b1c 9bbf
-0.9314241 -0.9319599 1.6099899 -1.3887731 -1.2118105

hidden_layer5.weight f4 [5, 5]
00000000: fd70 df3f ed4b d53f 76f2 f8bf 3357 e23f
00000010: 8b42 0a40 0f36 0040 b655 e63f 02c2 c3bf
00000020: 941c f53f 29b8 0040 7770 e63f 0780 f03f
00000030: 29eb abbf d03c f53f da94 0040 fca3 e13f
00000040: 5668 dd3f d380 d9bf 0d33 f83f daf2 cc3f
00000050: 63fb dcbf 075a e7bf 0153 a53f 9c1b ffbf
00000060: 8251 efbf
1.7456356 1.6663796 -1.9448993 1.7682861 2.1603115 2.0032995 1.7994907 -1.5293581
1.9149346 2.0112402 1.8003072 1.8789071 -1.343114 1.9159184 2.0090852 1.7628169
1.7297466 -1.6992439 1.939058 1.6011612 -1.7264217 -1.8074349 1.2915956 -1.9930301
-1.8696749

hidden_layer5.bias f4 [5]
00000000: 8903 84bf bdf2 babf 4adb b6bf bc4f 51bf
00000010: e154 833f
-1.0313579 -1.4605328 -1.4285672 -0.8176229 1.0260278

output_layer.weight f4 [1, 5]
00000000: b5d4 5740 1da7 6540 bb80 5940 b8d0 5440
00000010: 4e69 0cc0
3.3723576 3.5883248 3.398482 3.3252392 -2.1939273
